models/recommendation_model.pth (torch, 24849 bytes, 14 tensors)

shared.0.weight f4 [64, 8]
0	0xbdcbabfc	-0.09944913
1	0x3ece5b56	0.4030406
2	0x3ea6c462	0.32571703
3	0xbe6fc03d	-0.23413177
4	0x3e92b275	0.28651777
5	0x3ef3e0fa	0.4763258
6	0xbe77847e	-0.24171636
7	0xbe9529b9	-0.29133394
8	0xbea1c4d0	-0.3159547
9	0xbe9c29a3	-0.30500516
10	0xbd6a9dc2	-0.057279356
11	0x3ee43db2	0.4457832
12	0xbe816e24	-0.25279343
13	0xbe42fe2e	-0.19042274
14	0xbd40992d	-0.04702108
15	0x3ea14132	0.31495053
16	0x3d933fae	0.0718988
17	0xbe9b9bbe	-0.3039226
18	0x3e70c94a	0.23514286
19	0xbdd8ad3a	-0.10579915
20	0x3e72686e	0.2367265
21	0x3e49f5b0	0.19722629
22	0x3cee0cb0	0.029058784
23	0xbe39428b	-0.1809179
24	0x3d0f5775	0.034995515
25	0x3eaa32af	0.33241794
26	0xbcdc6b46	-0.02690662
27	0x3dae6d18	0.08516902
28	0xbe7329bb	-0.23746388
29	0xbec0ee40	-0.3768177
30	0x3e59aac0	0.21256542
31	0x3e7d4ad5	0.24735577
32	0x3e5c8d5b	0.21538298
33	0x3ccbb109	0.02486469
34	0x3eca17fb	0.3947142
35	0xbefbf613	-0.49211177
36	0x3e7c12b9	0.24616517
37	0x3d8f3ddb	0.0699422
38	0xbece63e7	-0.40310594
39	0xbe283194	-0.16425163
40	0xbea558fd	-0.32294455
41	0xbea22e69	-0.31676033
42	0xbec2d62e	-0.3805403
43	0x3e44a18f	0.19202255
44	0x3e425dca	0.1898109
45	0xbec6010a	-0.38672668
46	0xbec07eaf	-0.37596652
47	0xbe2c4720	-0.16824007
48	0x3e7d289a	0.2472252
49	0xbea95164	-0.3306991
50	0x3ed44338	0.41457534
51	0x3e169573	0.14705448
52	0x3e7e2d50	0.24821973
53	0x3c299536	0.010350516
54	0x3deb857f	0.11500072
55	0xbd3a1375	-0.045428712
56	0xbc8acbe5	-0.016942928
57	0xbdddab83	-0.10823729
58	0x3d73d14c	0.059525773
59	0xbeb98220	-0.3623209
60	0x3ef60cef	0.48056743
61	0x3ed60f63	0.41808614
62	0xbec85ac1	-0.3913174
63	0xbef34bb4	-0.47518694
64	0x3e83effe	0.25769037
65	0x3dc3eb03	0.09566309
66	0x3e36fe34	0.17870408
67	0xbdfefcae	-0.124505386
68	0xbe32c23b	-0.17456906
69	0x3e0ff1f2	0.14057139
70	0xbdfa3d60	-0.122187376
71	0x3e9855cd	0.2975296
72	0x3e803432	0.25039822
73	0x3ea54ccd	0.32285157
74	0x3dde79c9	0.108630724
75	0x3b435d4a	0.0029810243
76	0xbe0b3d61	-0.13597633
77	0x3e825a3c	0.25459468
78	0xbe49c219	-0.19702949
79	0xbdba0784	-0.09083465
80	0x3de95dbf	0.11394834
81	0x3cafe1a8	0.021469906
82	0xbe8a8203	-0.27052316
83	0xbecec1ca	-0.40382224
84	0xbe554252	-0.2082608
85	0x3e8a6734	0.27031863
86	0xbeb4368f	-0.35197875
87	0xbe97fa7e	-0.29683298
88	0xbded4a74	-0.115864664
89	0x3ea750ba	0.32678777
90	0x3e651f4e	0.22375223
91	0xbdd3c3fd	-0.10340116
92	0xbe4194ad	-0.18904372
93	0x3eb2a408	0.3489077
94	0x3dd1e878	0.10249418
95	0x3dacdc68	0.08440477
96	0x3e9159ef	0.28388926
97	0xbe8dc371	-0.27688172
98	0x3db37e15	0.087642826
99	0x3df5bd28	0.11998969
100	0x3d3f1052	0.046646424
101	0x3e9da601	0.30790713
102	0xbd734090	-0.059387743
103	0xbdf79440	-0.12088823
104	0xbe853704	-0.26018536
105	0x3eb3fb25	0.35152546
106	0xbe0c080e	-0.13674948
107	0x3d319a77	0.0433602
108	0x3d896567	0.06708794
109	0xbe04a2f7	-0.12952791
110	0x3ec5c6fa	0.3862837
111	0x3e13b319	0.14423789
112	0xbdfae367	-0.12250405
113	0x3ee3e81b	0.4451302
114	0xbeae1785	-0.3400232
115	0x3eadebfa	0.33969098
116	0x3e237eac	0.1596629
117	0xbddeb8f9	-0.108751245
118	0xbedba12e	-0.42896408
119	0xbe9913fb	-0.29898056
120	0x3edfecfd	0.43735495
121	0xbef28535	-0.47367254
122	0x3e7e9e78	0.24865139
123	0xbd6ba304	-0.05752851
124	0x3ecea67f	0.403614
125	0x3d07f929	0.033196602
126	0xbe3ba882	-0.18326
127	0xbdd4bf96	-0.103881046
128	0xbc91d2f5	-0.017800787
129	0xbe39f721	-0.18160678
130	0xbec9ae53	-0.3939081
131	0x3e662764	0.22475964
132	0xbe5e0115	-0.216801
133	0xbe0aea40	-0.13565922
134	0xbd071d44	-0.032986894
135	0x3ea10f61	0.31457046
136	0xbd48dc4f	-0.049038228
137	0x3e598259	0.2124113
138	0x3d24d1c2	0.040239103
139	0xbecb636e	-0.39724296
140	0x3ed3f9a5	0.414014
141	0x3eee09f7	0.46491978
142	0xbda722c2	-0.081609264
143	0x3e5f54a4	0.21809632
144	0xbde72f2b	-0.112882935
145	0xbeecc7ae	-0.46246094
146	0xbe687fca	-0.22704998
147	0x3d0c8e9a	0.034315683
148	0x3d5385f0	0.051641405
149	0x3ed443da	0.41458017
150	0xbec84b50	-0.3911996
151	0xbd74471b	-0.059638124
152	0x3ebe5a9c	0.37178504
153	0xbe163a98	-0.14670789
154	0xbeb74519	-0.35794905
155	0x3e849a8f	0.2589917
156	0xbe903dd4	-0.2817217
157	0xbe91b368	-0.2845719
158	0xbdfd1a77	-0.123585634
159	0x3da9d73b	0.08293005
160	0x3ec4d73c	0.3844546
161	0x3ed0db96	0.4079253
162	0xbd7c6245	-0.061617155
163	0xbe934970	-0.28766966
164	0xbcb32cab	-0.021871885
165	0x3eb7d36d	0.35903493
166	0xbe80fd2e	-0.2519316
167	0xbd7de2fd	-0.06198405
168	0xbdb9c811	-0.09071363
169	0x3bfa6410	0.007641323
170	0xbeb285b8	-0.34867644
171	0xbeab8e65	-0.33507076
172	0xbea5fa22	-0.324174
173	0xbe083813	-0.1330264
174	0x3ed8ecfd	0.42368308
175	0xbe6893d0	-0.22712636
176	0x3eb086ae	0.34477752
177	0x3bf3dcd7	0.0074420976
178	0x3ecc2b4d	0.39876786
179	0xbe9fd8de	-0.31220144
180	0x3e914ddc	0.28379714
181	0xbe2905eb	-0.16506164
182	0xbd515934	-0.05111046
183	0xbebcc2a0	-0.36867237
184	0x3e638529	0.22218765
185	0x3ec24cfe	0.37949365
186	0x3ea17ef2	0.31542164
187	0xbd7289b8	-0.05921337
188	0x3ee472d1	0.44618848
189	0x3ea3eb06	0.32015246
190	0x3dbbd64a	0.09171732
191	0xbebae0bd	-0.36499587
192	0x3eddb3ae	0.43301147
193	0xbe888047	-0.26660368
194	0x3e931f82	0.28734976
195	0xbed7dfea	-0.4216302
196	0xbe1c1fde	-0.15246531
197	0xbe5696e0	-0.20955992
198	0xbd9905f0	-0.074718356
199	0xbe47054a	-0.19435611
200	0xbbbf3a0a	-0.005835776
201	0xbe1fd526	-0.15608653
202	0xbdc8a124	-0.0979636
203	0x3ec2d193	0.38050517
204	0xbe8a57f1	-0.2702022
205	0x3e40b2fc	0.18818277
206	0xbc3be9ee	-0.011469347
207	0x3eb92802	0.36163336
208	0xbe883d54	-0.2660929
209	0xbcb9d226	-0.022683214
210	0x3d9c9975	0.07646457
211	0xbecba95b	-0.39777645
212	0x3d40cf0d	0.04707246
213	0x3e9ae88e	0.3025555
214	0xbe038990	-0.12845445
215	0xbe15d552	-0.14632156
216	0xbec396e9	-0.38201073
217	0x3d8bc729	0.06825096
218	0xbd69d43e	-0.057087176
219	0x3edd671b	0.43242726
220	0xbeed1b97	-0.46310112
221	0xbcb1eca8	-0.021719292
222	0x3ead45fa	0.3384245
223	0x3cbfa01f	0.023391781
224	0xbcaf1108	-0.021370426
225	0x3ec9878b	0.39361224
226	0x3df50ab0	0.11964929
227	0xbe5c6217	-0.21521793
228	0xbdfd0eb2	-0.123563185
229	0x3c8a78ca	0.0169033
230	0x3c53a620	0.012918025
231	0xbed02b98	-0.4065826
232	0x3ecfb246	0.405657
233	0xbd6a7b93	-0.057246756
234	0x3c3c173b	0.011480148
235	0x3e279307	0.1636468
236	0x3eee615c	0.46558654
237	0x3e938bcf	0.28817603
238	0xbdee960c	-0.11649713
239	0x3d9c0eaf	0.07619988
240	0xbd9aceb5	-0.075589575
241	0xbe6fa741	-0.23403646
242	0xbee77090	-0.45203066
243	0xbd844c1c	-0.06459829
244	0xbe8a2ed8	-0.26988864
245	0xbe86ab7a	-0.263027
246	0x3e850aa2	0.25984675
247	0x3ea4ec82	0.3221169
248	0x3ec40e0c	0.38291967
249	0x3eb8b807	0.36077902
250	0x3ed74f8d	0.4205288
251	0xbece91a6	-0.40345496
252	0x3e35f1f1	0.17768075
253	0xbd7bddfd	-0.061491
254	0xbedb4b42	-0.42830855
255	0xbe43b8dc	-0.19113487

shared.0.bias f4 [64]
0	0x3e69423a	0.2277917
1	0x3e08b12d	0.13348837
2	0x3dee5e7f	0.116391174
3	0xbce82681	-0.028338673
4	0x3eefb254	0.4681574
5	0xbd9a2733	-0.07527008
6	0x3eb02ce0	0.34409237
7	0x3d8be3cd	0.06830559
8	0xbd4bbb36	-0.049739085
9	0xbe723c2e	-0.23655769
10	0x3d562ec2	0.052290685
11	0x3eaabe41	0.33348277
12	0x3d368395	0.04455908
13	0x3e9dfa0d	0.30854836
14	0xbe1373f5	-0.14399703
15	0x3e9b140f	0.3028874
16	0xbdef4ea4	-0.116849214
17	0xbe2f527d	-0.1712131
18	0x3e5c2d08	0.21501553
19	0x3e55ea65	0.20890196
20	0xbe351ff7	-0.17687975
21	0xbe51bd03	-0.20482258
22	0x3e242114	0.16028243
23	0xbdbe367c	-0.09287736
24	0x3e0705e2	0.13185838
25	0x3cbdd293	0.023171699
26	0x3e266632	0.16249922
27	0x3e1bce94	0.15215522
28	0x3ee2493e	0.44196504
29	0xbe2e0460	-0.16993856
30	0x3eb5121d	0.35365382
31	0x3e8f2f8d	0.27965966
32	0x3e991cb1	0.29904702
33	0x3e80f8c6	0.251898
34	0x3e500719	0.20315208
35	0xbe32884e	-0.17434809
36	0x3e96933b	0.29409203
37	0x3e88b5ed	0.26701298
38	0x3eaf9e83	0.34300622
39	0x3e1dfecd	0.1542923
40	0x3c39bad6	0.011336049
41	0x3d9303dc	0.071784705
42	0x3ddd2002	0.10797121
43	0x3e3896ed	0.18026324
44	0xbe5703b6	-0.2099751
45	0x3d43651b	0.047703844
46	0xbb8199dd	-0.0039551095
47	0x3d762d37	0.060101714
48	0x3ec86ccb	0.39145502
49	0x3ef15090	0.47131777
50	0xbdf7c3a9	-0.12097866
51	0x3ee6321b	0.44960102
52	0x3ee0c8fa	0.43903333
53	0xbdb3fa16	-0.087879345
54	0x3e4eabf2	0.2018278
55	0xbe2a54b6	-0.16633877
56	0x3ed2232f	0.41042468
57	0xbe3374f2	-0.1752508
58	0x3e6384ad	0.2221858
59	0x3e4e0fe5	0.20123251
60	0x3ed357d4	0.41277945
61	0xbd189d38	-0.03725931
62	0x3e9d046f	0.30667445
63	0xbd0305e6	-0.031988047

shared.3.weight f4 [32, 64]
0	0xbce79d4b	-0.028273245
1	0x3dfaafaf	0.1224054
2	0x3c155c73	0.00911628
3	0x3e03d15e	0.12872836
4	0x3c14dca8	0.009085812
5	0xbcb09a9f	-0.021558104
6	0x3d85c781	0.06532193
7	0x3e0935b8	0.13399398
8	0x3d6b1557	0.057393398
9	0x3e0d7d0a	0.1381723
10	0x3e04e52a	0.12978044
11	0x3e42c9f6	0.19022354
12	0x3dee9fc0	0.11651564
13	0x3dd9c170	0.106325984
14	0x3df81354	0.121130615
15	0x3e2d9e6b	0.16954963
16	0x3e01c71f	0.12673615
17	0x3e37df85	0.1795636
18	0x3e2444e2	0.16041902
19	0x3df70872	0.12062158
20	0x3b104bfa	0.0022017942
21	0xbd46f6de	-0.048575275
22	0x3d288650	0.041143715
23	0xb992b926	-0.00027985236
24	0xbd6ebc02	-0.058284767
25	0x3e48084a	0.19534412
26	0xbbf5f021	-0.0075054322
27	0x3e10b40c	0.14131182
28	0xbac4a3cb	-0.0015002427
29	0x3e0c09b6	0.1367558
30	0x3e386b57	0.18009697
31	0x3ca865a0	0.020556271
32	0xbd0a18a8	-0.03371492
33	0x3e2e5e93	0.17028265
34	0x3e2e980e	0.17050192
35	0xbcd36346	-0.025804173
36	0x3e43f357	0.19135796
37	0xbcb9f2b7	-0.022698743
38	0x3e189232	0.14899519
39	0x3e47189b	0.1944298
40	0x3dde0c8d	0.108422376
41	0x3e11b58e	0.14229414
42	0x3de0a92e	0.109697685
43	0x3d989d81	0.074519165
44	0x3e4f1d12	0.20225933
45	0xbc995aed	-0.018720115
46	0x3d996e79	0.07491774
47	0xbd60d260	-0.05488813
48	0x3e261d61	0.16222145
49	0x3dc62941	0.09675837
50	0x3d59abd7	0.053142395
51	0x3dce7367	0.10080605
52	0xbd3cae4c	-0.04606466
53	0xbd61b06a	-0.055099882
54	0x3daa930b	0.083288275
55	0x3be8491d	0.007088794
56	0x3ca0930f	0.019601373
57	0x3e323bf7	0.17405687
58	0x3ddbd533	0.10734024
59	0x3dadce70	0.084866405
60	0x3e1ed7ac	0.1551196
61	0x3dc4760b	0.095928274
62	0x3bfb4697	0.007668327
63	0x3e3d06e2	0.18459657
64	0xbdea8ceb	-0.11452659
65	0xbdedbd7b	-0.11608406
66	0x3d4dac3f	0.050213095
67	0x3da3b86c	0.0799416
68	0xbde1efba	-0.11032052
69	0x3daa7529	0.08323128
70	0x3cbc0004	0.022949226
71	0x3ba07e04	0.0048978347
72	0x3d959adb	0.07304927
73	0xbe03eb50	-0.12882733
74	0x3bcbca29	0.0062191677
75	0xbbd1b149	-0.006399308
76	0xbc312c4d	-0.010813785
77	0xbde2bbaa	-0.1107095
78	0x3d9b2a25	0.07576398
79	0xbde2d771	-0.110762484
80	0xbde4c625	-0.111706056
81	0xbc91eb1a	-0.0178123
82	0xbdae3777	-0.08506673
83	0xbd85fa7a	-0.06541915
84	0x3b5b5843	0.0033469356
85	0x3c7e10f1	0.015506969
86	0x3d7ed1d1	0.062211815
87	0x3d95e57e	0.07319163
88	0x3d9dfe7e	0.07714556
89	0xbdf24039	-0.11828656
90	0x3d892fd5	0.06698576
91	0xbdbcdfe8	-0.09222394
92	0xbe0166cd	-0.12636872
93	0xbd6ba31e	-0.057528608
94	0xbd8ed6b5	-0.06974546
95	0x3d853a11	0.06505216
96	0x3aad05b1	0.0013200549
97	0xbda60ad8	-0.08107537
98	0xbd416ec5	-0.04722478
99	0x3c34635e	0.011010019
100	0xbd414611	-0.04718596
101	0x3d9d10d5	0.07669226
102	0xbdea50af	-0.114411704
103	0x3c15454b	0.009110759
104	0xbd6e6237	-0.058199134
105	0xbe255f8d	-0.16149731
106	0x3d5733e7	0.052539732
107	0xbd14bd84	-0.03631355
108	0xbe19e7f2	-0.15029886
109	0xbcb99049	-0.022651808
110	0xbd2d7218	-0.042345136
111	0x3cfa1c62	0.030531112
112	0xbd0cc25b	-0.03436504
113	0x3c6b9849	0.014379569
114	0xbcf04ec7	-0.029334439
115	0xbc271f01	-0.010200263
116	0xbbc1a8a0	-0.0059099942
117	0xbd7f8da2	-0.06239093
118	0x3d95f3f8	0.07321924
119	0xbe0e3fdb	-0.13891546
120	0x3cf5b000	0.02999115
121	0xbd89d307	-0.067297034
122	0xbdb13e54	-0.08654466
123	0xbd3d5a22	-0.046228535
124	0x3d75decf	0.06002694
125	0xbd92a615	-0.07160584
126	0x3d12352e	0.035695247
127	0xbe09dba9	-0.134627
128	0xbbb49e10	-0.0055120066
129	0xbe082006	-0.13293466
130	0x3d907f42	0.070555225
131	0xbd3f84c7	-0.046757486
132	0xbddaac21	-0.10677362
133	0xbca2b396	-0.019861024
134	0xbdd0c2c0	-0.101933956
135	0x3d1fae7d	0.038984764
136	0x3c1b426b	0.0094762845
137	0xbd503eb4	-0.05084105
138	0x3c3466bc	0.011010822
139	0x3d91e815	0.07124344
140	0xbcb0498a	-0.021519441
141	0xb9d6b12b	-0.0004094926
142	0x3d8ab766	0.06773262
143	0x3d927b29	0.07152397
144	0x3d398847	0.04529598
145	0xbdd92294	-0.106022984
146	0x3c5a92db	0.013340677
147	0xbe13bba5	-0.1442705
148	0xbdd6778a	-0.10472019
149	0x3d00a997	0.031411733
150	0xba08b600	-0.00052151084
151	0xbd84ecfb	-0.06490513
152	0xbd118bd4	-0.03553374
153	0xbd6c9837	-0.05776235
154	0xbdb2cd8c	-0.08730611
155	0xbd19d9a0	-0.03756106
156	0xbe18d767	-0.1492592
157	0xbe088a2e	-0.13333961
158	0xbdb6c30c	-0.08923921
159	0x3d418ee5	0.047255415
160	0xbddd7e30	-0.10815084
161	0xbd840815	-0.06446854
162	0x3b9ec17e	0.0048448434
163	0x3d376c41	0.044780973
164	0x3d1f460d	0.038885165
165	0xbdf98ea3	-0.12185409
166	0xbd9e40c7	-0.07727199
167	0xbdf5f46c	-0.120095104
168	0xbc784f27	-0.01515559
169	0x3b69e0c2	0.0035686945
170	0x3d37d324	0.044879094
171	0x3c8e543c	0.01737415
172	0x3c8401bb	0.016114106
173	0xbd7b49cc	-0.061349675
174	0xbdff0e2b	-0.12453874
175	0xbdebaf33	-0.11508026
176	0xbd3199f3	-0.043359708
177	0x3d8331f6	0.06406014
178	0xbe075363	-0.13215403
179	0xbddae992	-0.10689081
180	0xbde359ec	-0.111011356
181	0xbd57bc59	-0.052669857
182	0x3c9e27d7	0.019306106
183	0x3d35a1dd	0.044343818
184	0xbdf2ea5b	-0.11861106
185	0x3d9675fa	0.07346721
186	0x3cca272b	0.02467688
187	0xbca07867	-0.019588662
188	0x3bc1b90d	0.0059119524
189	0x3ae04471	0.0017110241
190	0xbcbefce6	-0.02331395
191	0xbdbaae0b	-0.09115227
192	0x3e011fcb	0.12609784
193	0x3d86a054	0.06573549
194	0x3cd96a27	0.026539875
195	0x3d4555c4	0.048177496
196	0x3dbbab39	0.091635175
197	0x3e15101f	0.14556931
198	0x3e43af2f	0.19109796
199	0x3d48ce3f	0.049024817
200	0x3d972121	0.07379366
201	0x3e4ae289	0.19812979
202	0x3e14af30	0.14519954
203	0x3e87ca22	0.26521403
204	0x3df80daa	0.12111981
205	0x3d9a7206	0.075412795
206	0x3d8b06d7	0.06788414
207	0x3d2cade0	0.042158008
208	0x3d02e356	0.031955086
209	0x3e0fc77e	0.14040944
210	0x3d0bab54	0.034098938
211	0x3e137e48	0.14403641
212	0x3e30ca56	0.17264685
213	0x3d16b80a	0.036796607
214	0x3dc88192	0.097903386
215	0x3e1f0eb1	0.15532948
216	0x3e642c59	0.22282542
217	0x3df4e66a	0.119580105
218	0x3e774c10	0.2415011
219	0x3e5f0284	0.21778303
220	0x3cf5189d	0.029918963
221	0x3deb0da1	0.11477209
222	0x3e1da92f	0.1539657
223	0x3e7774f0	0.24165702
224	0x3d4ec3f0	0.05047983
225	0x3e33da60	0.17563772
226	0x3e302952	0.17203262
227	0x3d536c83	0.051617157
228	0x3e405fb3	0.18786506
229	0x3d9019ba	0.07036157
230	0x3e4beb21	0.19913913
231	0x3dc88e9f	0.09792828
232	0x3e0738ad	0.13205214
233	0x3e59a02b	0.21252505
234	0x3d55ffe2	0.052245982
235	0x3e8206f4	0.2539593
236	0x3e13ab17	0.14420734
237	0x3db6555e	0.08903001
238	0x3e15b659	0.14620341
239	0x3dd50c67	0.10402756
240	0x3d24d1b8	0.040239066
241	0x3dea9b65	0.114554204
242	0x3dcc57cd	0.09977684
243	0x3e1ec355	0.15504201
244	0x3e1c6f8d	0.15276928
245	0x3df16352	0.11786522
246	0x3d9e2b25	0.07723073
247	0x3e571809	0.21005262
248	0x3e02241a	0.12709084
249	0x3e2b939c	0.16755527
250	0x3e3ddb29	0.18540634
251	0x3e846f52	0.2586618
252	0x3e25fcc4	0.16209704
253	0x3d4fd0b6	0.05073615
254	0x3d6385e7	0.05554762
255	0x3df33f18	0.118772686

shared.3.bias f4 [32]
0	0x3d5ae46f	0.053440508
1	0x3cf6dfcf	0.030136017
2	0xbe13e469	-0.144426
3	0x3d90e239	0.070743985
4	0x3df61f2a	0.12017663
5	0x3d5569f8	0.052103013
6	0x3d6230fa	0.05522249
7	0x3ce7c2c8	0.028291121
8	0x3e4e57aa	0.20150629
9	0x3d72ff6c	0.05932562
10	0xbd79f4e9	-0.06102458
11	0x3b9fd20b	0.004877334
12	0x3e6a5b13	0.22886305
13	0x3e5c9c8d	0.21544094
14	0x3e3d4e48	0.18486893
15	0x3e0f5fca	0.14001384
16	0xbc78f12d	-0.01519422
17	0x3d6ae82f	0.057350334
18	0xbdf6fd1f	-0.12059998
19	0x3db46713	0.08808722
20	0x3d9d039a	0.076667026
21	0x3dc3cbe4	0.095603734
22	0x3d314d9d	0.04328691
23	0x3e5b7e75	0.21434958
24	0x3e756a58	0.23966348
25	0x3d8f112b	0.069856964
26	0x3dbbdc2c	0.09172854
27	0x3dd1eca5	0.102502145
28	0x3df00b9e	0.11720966
29	0x3e345235	0.17609484
30	0x3d72c51d	0.059270013
31	0x3e7f3f4d	0.24926491

solvent_head.0.weight f4 [16, 32]
0	0x3e16471d	0.14675565
1	0x3c3249ee	0.010881884
2	0x3e06a6c8	0.1314956
3	0xbd17352b	-0.03691594
4	0xbbd67af5	-0.0065454193
5	0x3c8c3727	0.017116142
6	0xbd440e14	-0.04786499
7	0xbdffb3a3	-0.12485435
8	0x3dc5d8be	0.09660481
9	0xbe5cdb38	-0.21568
10	0x3e175fe4	0.14782673
11	0x3c00b8e8	0.007856585
12	0x3dc8f543	0.09812405
13	0xbe37bcfc	-0.17943186
14	0xbdb01620	-0.0859797
15	0xbbdccea9	-0.006738503
16	0x3c72c00d	0.014816296
17	0x3d2bb22e	0.041917972
18	0xbe499709	-0.19686522
19	0xbcfc9977	-0.030834896
20	0x3db810da	0.08987589
21	0xbde02b60	-0.10945773
22	0xbbf7e555	-0.0075651803
23	0x3dc6f0d7	0.09713905
24	0x3c912e55	0.017722288
25	0x3d2cf907	0.04222968
26	0xbe359110	-0.17731118
27	0xbe3ef228	-0.18647063
28	0x3d6b078d	0.057380248
29	0xbe2252dd	-0.15851922
30	0xbd1b2131	-0.03787345
31	0xbe04b02a	-0.12957826
32	0x3dbd84c4	0.09253839
33	0xbd84f5eb	-0.06492218
34	0xbe183ed6	-0.1486772
35	0xbc2bdbc8	-0.010489412
36	0x3de26bb9	0.11055703
37	0xbe2dd2f3	-0.16975002
38	0xbdb9671c	-0.0905287
39	0x3cfaf060	0.030632198
40	0xbe092a9d	-0.13395162
41	0x3d9fa18f	0.07794487
42	0xbdaa1b94	-0.08306041
43	0xbd9f0a85	-0.07765678
44	0xbe62484b	-0.2209789
45	0xbdbeb26a	-0.093113735
46	0xbce25d3d	-0.02763235
47	0x3d9c5747	0.07633834
48	0xbdc09cdb	-0.09404918
49	0xbdfb3a06	-0.122669265
50	0xbdcda5ff	-0.10041427
51	0xbd0087fd	-0.03137969
52	0xbcfcd727	-0.030864311
53	0xbd93658f	-0.07197105
54	0x3d91ed48	0.07125336
55	0xbca31ce1	-0.019911231
56	0xbcbda92e	-0.02315196
57	0xbe4f3ae6	-0.20237312
58	0x3d49dc11	0.049282137
59	0xbd96fcdd	-0.073724486
60	0x3da600da	0.08105631
61	0xbddfca0c	-0.10927209
62	0xbe46fa77	-0.19431482
63	0x3d9e997d	0.07744119
64	0xbe0bc61b	-0.1364979
65	0x3d3b0a2e	0.045664005
66	0x3b56e465	0.0032789942
67	0x3e3bc08a	0.18335167
68	0x3e02afa0	0.12762308
69	0xbc74574c	-0.014913391
70	0xbc015373	-0.007893431
71	0xbce33837	-0.027736766
72	0x3de21c4f	0.11040556
73	0xbda9aff9	-0.08285517
74	0xbdf99c37	-0.12187999
75	0x3b8d94c6	0.0043207137
76	0xbdda64bc	-0.10663745
77	0xbd62c933	-0.05536766
78	0x3dbf1de5	0.09331874
79	0xbbd604ac	-0.0065313186
80	0x3d8c2025	0.068420686
81	0x3cb3dfe8	0.021957353
82	0x3df5406c	0.11975178
83	0x3e408425	0.18800409
84	0x3d95c021	0.07312036
85	0x3d8feac6	0.07027201
86	0x3c54ae6a	0.012981037
87	0xbd85b24b	-0.06528147
88	0xbd6d3499	-0.05791149
89	0x3c4181b1	0.011810706
90	0xbda46729	-0.08027489
91	0x3db63bba	0.08898111
92	0x3d28f38a	0.041247882
93	0xbd56463c	-0.052313074
94	0xbd927ad1	-0.071523316
95	0xbd157a1b	-0.036493402
96	0x3dd317d7	0.103072815
97	0xbd5c7cd9	-0.05383
98	0xbcb4c2eb	-0.0220656
99	0x3e491505	0.19636925
100	0xbde95972	-0.113940135
101	0xbdbf602a	-0.09344514
102	0xbd921b5e	-0.07134126
103	0xbd6c6b8f	-0.057719763
104	0x3e0941f5	0.13404067
105	0xbcdb482f	-0.026767818
106	0xbe080639	-0.13283624
107	0xbdcd8157	-0.10034435
108	0xbcbaabad	-0.02278694
109	0x3d9cb050	0.076508164
110	0x3cb96232	0.022629831
111	0xbdc76120	-0.09735322
112	0x3c4ae4b5	0.01238363
113	0xbdb7d041	-0.08975268
114	0xbc046464	-0.008080576
115	0xbde33318	-0.1109373
116	0xbd9db5b6	-0.07700674
117	0x3d49df94	0.049285486
118	0xbd3b24f2	-0.04568953
119	0xbdb2c721	-0.08729387
120	0xbd9a8032	-0.075439826
121	0xbda2cf22	-0.07949664
122	0xbe03be67	-0.12865601
123	0xbd8d936b	-0.06912883
124	0xbd8251bf	-0.06363248
125	0x3e3745f2	0.17897776
126	0x3def4906	0.1168385
127	0x3e379691	0.1792853
128	0xbd4fc9b3	-0.050729465
129	0x3da03855	0.078232445
130	0x3da9632f	0.08270871
131	0xbdc27348	-0.094946444
132	0x3d01475b	0.03156219
133	0x3d39a169	0.04531995
134	0x3dc80dc5	0.09768251
135	0xbe37f43f	-0.17964266
136	0xbe020fd3	-0.12701349
137	0xbdf34d23	-0.11879947
138	0x3d3e4bbc	0.046458945
139	0xbd023bc5	-0.031795282
140	0x3e03cbec	0.12870759
141	0xbe0e00f3	-0.1386755
142	0x3c82a763	0.015948957
143	0xbe076e07	-0.13225566
144	0xbe231ad2	-0.159282
145	0x3acc1369	0.001556975
146	0xbe19557f	-0.1497402
147	0xbdc60b76	-0.09670155
148	0x3e0db69a	0.13839188
149	0xbe0d676a	-0.1380898
150	0x3c5ed8da	0.013601506
151	0xbdba95ff	-0.09110641
152	0xbc5e5ae4	-0.013571475
153	0xbbb12305	-0.005405786
154	0xbd829907	-0.06376844
155	0xbdd39ff6	-0.103332445
156	0xbde65dc6	-0.112483546
157	0x3db7e28e	0.08978759
158	0x3db4d111	0.08828939
159	0xbdd6b689	-0.104840346
160	0x3ddb50bd	0.10708759
161	0xbd77d8d4	-0.060509518
162	0x3e36f7d6	0.1786798
163	0xbd9e12e0	-0.07718444
164	0x3e4c03a7	0.19923268
165	0xbcca69f0	-0.024708718
166	0xbd5227f2	-0.051307626
167	0x3e32232a	0.17396227
168	0xbda309cb	-0.07960852
169	0x3e3ddabf	0.18540476
170	0x3dc7fc80	0.097649574
171	0xbcac63f5	-0.021043757
172	0x3d23d353	0.039996456
173	0x3e4706dc	0.1943621
174	0xbc688e02	-0.014194014
175	0x3d8b0757	0.06788509
176	0x3db4d857	0.08830326
177	0x3e318cd4	0.17338878
178	0x3b114b76	0.0022170222
179	0xbca1e32d	-0.019761646
180	0x3e36277e	0.17788503
181	0xbde39cf1	-0.111139186
182	0xbd973a42	-0.07384159
183	0xbd6db3a1	-0.058032636
184	0xbdecfa01	-0.11571122
185	0xbc0033cd	-0.00782485
186	0x3e4fc70a	0.20290771
187	0xbda8ee38	-0.082485616
188	0x3e429c42	0.1900492
189	0x3e07b8ac	0.1325404
190	0x3d8ea4c4	0.0696502
191	0x3ddfba2a	0.1092418
192	0x3ded4021	0.11584497
193	0xbd7858bc	-0.0606315
194	0xbdd7027a	-0.10498519
195	0xbd37b738	-0.044852465
196	0x3e16f1b8	0.14740646
197	0x3e362203	0.17786412
198	0x3e12cf5e	0.14336917
199	0x3e24b1c1	0.16083433
200	0xbbad2a7f	-0.005284607
201	0xbdbe798a	-0.093005255
202	0xbe2850ad	-0.16437025
203	0x3deb0645	0.11475805
204	0xbcaad9df	-0.020855842
205	0x3e068ec7	0.13140403
206	0xb9b376ad	-0.0003422996
207	0x3c0880e5	0.008331512
208	0x3d0ed690	0.03487259
209	0x3e19108f	0.14947723
210	0xbe125a5d	-0.14292283
211	0x3e59056d	0.21193476
212	0x3dd32465	0.10309676
213	0x3bb4198d	0.00549621
214	0x3dcc25dc	0.099681586
215	0xbded640a	-0.115913466
216	0xbcd199ea	-0.025586087
217	0x3e3c07a8	0.18362296
218	0x3e3866e8	0.18008006
219	0x3e3b6558	0.18300378
220	0xbc0e947f	-0.008702396
221	0x3e26aa6f	0.16275953
222	0x3e40a2a5	0.18812044
223	0x3d479cee	0.048733644
224	0x3df4c827	0.119522385
225	0xbde3bccb	-0.11119994
226	0xbe056885	-0.13028152
227	0x3d302f27	0.043013718
228	0x3e378953	0.17923479
229	0xbdb1a9e6	-0.08674984
230	0x3dd62ade	0.10457395
231	0xbd4feb50	-0.05076152
232	0x3d24f480	0.040272236
233	0xbe3329d6	-0.17496428
234	0x3c02bf07	0.007980115
235	0xbdf99262	-0.121861234
236	0xbc1fa56b	-0.009744029
237	0x3d341450	0.043964684
238	0x3c451b76	0.012030473
239	0xbcaef3dd	-0.021356517
240	0x3ce90c5e	0.02844828
241	0x3e0c5a12	0.13706234
242	0x3bd3a145	0.006458434
243	0x3dac96f0	0.084272265
244	0xbd876627	-0.06611281
245	0x3e02663a	0.12734309
246	0x3db3d391	0.087805875
247	0xbb5a2629	-0.0033286905
248	0x3dc18fc7	0.094512515
249	0x3def10a0	0.11673093
250	0x3d892225	0.06695966
251	0xbe1bc413	-0.15211515
252	0x3e175b57	0.14780937
253	0xbce91185	-0.028450737
254	0xbe07da52	-0.13266876
255	0x3db02615	0.086010136

solvent_head.0.bias f4 [16]
0	0xbe51c138	-0.20483863
1	0x3e09114e	0.13385507
2	0x3de7dce6	0.1132143
3	0xbcd5477f	-0.026035069
4	0xbe2affa8	-0.16699088
5	0x3cb8a795	0.022540847
6	0x3ddb507f	0.10708713
7	0x3d0cb53a	0.03435252
8	0x3d6dc198	0.058045954
9	0x3e491f13	0.1964076
10	0x3da4e37f	0.08051204
11	0x3d9a3c1c	0.07530996
12	0x3d55d7bd	0.052207697
13	0xbca35ef2	-0.019942734
14	0xbbd1231c	-0.006382359
15	0x3dfea213	0.12433257

solvent_head.2.weight f4 [3, 16]
0	0xbe4f006d	-0.20215006
1	0x3dd9f557	0.10642498
2	0xbdb759a2	-0.08952643
3	0x3e034f70	0.12823272
4	0x3df48b24	0.119406015
5	0x3e1518bb	0.14560215
6	0xbe477378	-0.19477642
7	0x3deaf547	0.11472564
8	0xbc568362	-0.013092848
9	0xbe285ff1	-0.16442849
10	0x3e1f9722	0.15584996
11	0xbe196b1e	-0.14982268
12	0x3e108206	0.141121
13	0x3e0f4a39	0.13993157
14	0xbda7e256	-0.08197467
15	0x3da02119	0.07818813
16	0xbe2a8332	-0.1665161
17	0xbe46fb0e	-0.19431707
18	0xbd72565c	-0.05916439
19	0x3e6b0347	0.22950469
20	0xbd8f9810	-0.070114255
21	0x3e939571	0.28824952
22	0x3e960a7d	0.29304877
23	0xbe2d68d5	-0.16934521
24	0x3e9afcd7	0.30271026
25	0x3e796fba	0.24359027
26	0xbdb724bc	-0.089425534
27	0xbe1eb5d9	-0.15499057
28	0x3e8445de	0.25834554
29	0xbd8e22c6	-0.06940226
30	0xbe3fda82	-0.18735698
31	0xbdcc9b06	-0.09990506
32	0x3db99297	0.09061163
33	0x3e2f2151	0.17102553
34	0xbe5141cd	-0.20435257
35	0x3e0042c4	0.12525469
36	0x3de6c925	0.11268834
37	0x3ddb0486	0.10694222
38	0x3dd7bd5b	0.105341636
39	0xbe80a22b	-0.25123724
40	0x3d9147e1	0.07093788
41	0x3e329918	0.17441213
42	0x3e294e3d	0.16533752
43	0xbc4c64ea	-0.012475232
44	0xbe9dc634	-0.3081528
45	0x3d93c931	0.072161086
46	0xbd4894ad	-0.048969913
47	0x3d5136a0	0.051077485

solvent_head.2.bias f4 [3]
0	0xbe4b281e	-0.19839522
1	0xbe13a2fe	-0.14417645
2	0x3d7ecf66	0.06220951

columns_head.0.weight f4 [16, 32]
0	0xbd4edb7a	-0.050502278
1	0xbdbfb292	-0.093602315
2	0xbdd13a17	-0.10216158
3	0x3dc1e54d	0.09467564
4	0xbe091316	-0.13386187
5	0x3cae5329	0.021279888
6	0x3d3f6001	0.046722416
7	0xbc2f0b69	-0.010683873
8	0xbcf5c664	-0.030001827
9	0xbd03b4f1	-0.03215498
10	0xbd496a1e	-0.049173467
11	0xbdf2a35d	-0.11847565
12	0xbdad58b0	-0.084641814
13	0x3cccae64	0.0249855
14	0x3c2f7069	0.010707953
15	0xbd029876	-0.03188368
16	0x3e20848a	0.1567556
17	0xbddd7c2c	-0.108146995
18	0xbd2d8be9	-0.042369757
19	0xbcbc8643	-0.02301324
20	0xbdf63796	-0.12022321
21	0x3b652fba	0.0034971074
22	0xbd8ab057	-0.067719154
23	0xbe1fc788	-0.15603459
24	0xbe083ad7	-0.13303696
25	0xbd8868d3	-0.06660619
26	0x3e1f7c14	0.15574676
27	0x3dfbc390	0.1229316
28	0xbe0267af	-0.12734865
29	0xbe239879	-0.15976132
30	0xbe2e916a	-0.17047659
31	0x3a8ff8dc	0.00109842
32	0xbdc30f97	-0.09524458
33	0x3dd3dee0	0.103452444
34	0xbcd8d490	-0.026468545
35	0xbdbac29f	-0.09119152
36	0xbddfc9cf	-0.10927164
37	0x3b383e6e	0.0028113383
38	0x3de96fda	0.11398287
39	0x3d64af64	0.055831328
40	0x3cd00a6b	0.025395593
41	0xbe09f2de	-0.13471553
42	0xbd1c1d13	-0.038113665
43	0x3c942380	0.018083334
44	0xbd912ac8	-0.07088238
45	0x3c9099d9	0.017651485
46	0x3c129edf	0.008949011
47	0x3d3cb0a2	0.046066888
48	0x3c984f59	0.018592523
49	0x3e41c36f	0.18922208
50	0xbbc52f2b	-0.0060175858
51	0x3e3ef44e	0.18647882
52	0x3db5b890	0.08873093
53	0xbdbea21a	-0.09308262
54	0xbdd7c113	-0.10534873
55	0xbd63898c	-0.055551097
56	0x3e1d7cff	0.15379713
57	0x3e239d23	0.15977912
58	0x3d5917a7	0.053001072
59	0xbdbbf4b4	-0.09177533
60	0xbc47577b	-0.012166853
61	0x3d74e115	0.059784967
62	0xbd6ab7df	-0.05730426
63	0x3e1814aa	0.14851633
64	0xbe401005	-0.18756111
65	0x3de2e50e	0.11078845
66	0x3e0b4235	0.13599475
67	0xbb3b99ac	-0.002862553
68	0xbc86d01b	-0.016456654
69	0xbe1306c0	-0.14358044
70	0x3de01e3c	0.10943267
71	0xbe240793	-0.16018514
72	0x3bf1aea2	0.007375554
73	0x3dc1156f	0.09427916
74	0xbe416546	-0.18886289
75	0x3ce06171	0.027390214
76	0x3d7ad8a9	0.06124178
77	0x3debe846	0.11518912
78	0xbca7b08a	-0.020469923
79	0xbd941bea	-0.07231887
80	0xbda4e81a	-0.08052082
81	0xbe0818a3	-0.13290648
82	0xbdba8bcb	-0.09108695
83	0x3dd52a1b	0.104084216
84	0xbdff021a	-0.12451573
85	0xbe02f4b6	-0.12788662
86	0x3c0a2727	0.008432186
87	0x3dbb80b9	0.09155411
88	0xbe303d70	-0.17210937
89	0xbe0fea66	-0.1405426
90	0x3daddae9	0.084890194
91	0xbd0fd58b	-0.03511576
92	0x3d89c2b7	0.06726592
93	0x3e00e648	0.12587845
94	0x3d2c9566	0.042134665
95	0x3bfa1dc2	0.007632942
96	0x3940af02	0.00018375742
97	0x3d255872	0.04036755
98	0x3da33fd0	0.07971156
99	0x3e44e995	0.1922973
100	0xbe17202a	-0.14758363
101	0xbdb1bdce	-0.086787805
102	0x3db386a0	0.08765912
103	0x3cdf9326	0.027291846
104	0xbe06dfdb	-0.13171332
105	0x3e2074e1	0.15669586
106	0xbdc930ba	-0.09823747
107	0x3cdc416b	0.026886662
108	0x3d22c0f5	0.0397348
109	0xbd8a9a52	-0.067677155
110	0xbd29b684	-0.041433826
111	0x3e207ef4	0.15673429
112	0x3e2715f0	0.16316962
113	0xbdb4b2d7	-0.088231735
114	0xbe0c0ff5	-0.13677962
115	0x3d7c5693	0.061606
116	0x3e3754fe	0.17903516
117	0x3d48dfda	0.049041606
118	0xbc621c74	-0.013800729
119	0xbd788646	-0.060674928
120	0xbc5b6724	-0.01339129
121	0x3d372b0b	0.044718783
122	0x3e16ca9f	0.14725731
123	0xbd935baa	-0.07195218
124	0x3d7a6cd0	0.061138928
125	0xbdcc4da7	-0.099757485
126	0x3da93311	0.08261693
127	0x3d50079c	0.050788507
128	0xbdb807cf	-0.08985864
129	0xbe03aeb8	-0.12859619
130	0xbc62dd87	-0.013846762
131	0x3c458fe0	0.012058228
132	0xbd88a3d2	-0.06671871
133	0xbe0a13ea	-0.13484159
134	0x3db00f36	0.08596651
135	0xbe14e716	-0.14541277
136	0xbe1f91f8	-0.15583026
137	0x3d077788	0.03307298
138	0xbe00600e	-0.12536642
139	0xbde7a660	-0.113110304
140	0xbc091419	-0.008366608
141	0xbd104858	-0.035225242
142	0x3c9b6213	0.018967664
143	0x3d2cf0d4	0.04222186
144	0xbe2594c5	-0.16170032
145	0xbe46febd	-0.19433112
146	0xbe0e4525	-0.13893564
147	0x3d9d7a8f	0.07689392
148	0xbd2e9566	-0.042622946
149	0xbd966041	-0.07342578
150	0x3dd2db30	0.10295713
151	0x3dbdcf1e	0.0926802
152	0x3e09e33d	0.13465591
153	0x3c820766	0.015872668
154	0x3dc2e274	0.09515849
155	0xbe453c16	-0.19261202
156	0xbdf21b9c	-0.11821672
157	0xbdeb778c	-0.11497411
158	0x3da7fcfe	0.08202551
159	0xbd6944a9	-0.056950245
160	0xbd36e559	-0.044652317
161	0x3db63c2d	0.08898196
162	0xbd54b440	-0.051929712
163	0xbde375e7	-0.111064725
164	0xbc73545f	-0.014851659
165	0x3cd6f75e	0.026241
166	0x3df501ee	0.11963259
167	0xbd6dca8c	-0.058054492
168	0x3e2de562	0.16982034
169	0x3d735239	0.059404586
170	0x3da28e68	0.07937318
171	0xbe194cad	-0.14970656
172	0x3cf0fd07	0.029417528
173	0xbe2650ca	-0.16241756
174	0x3e0968b8	0.13418853
175	0x3d55e0f1	0.052216474
176	0x3e11268a	0.14174858
177	0x3ccdbfc1	0.02511585
178	0x3dab326f	0.08359229
179	0x3d02a900	0.031899452
180	0x3c0ea835	0.008707096
181	0x3dde3bb6	0.10851233
182	0xbc045f7f	-0.008079409
183	0x3e2f8202	0.17139438
184	0xbdf56e50	-0.11983931
185	0xbe252531	-0.16127469
186	0x3d9dee10	0.077114224
187	0xbdbcff5b	-0.09228393
188	0xbe1cc01e	-0.15307662
189	0xbd6faaa3	-0.05851234
190	0x3d21d48f	0.039509352
191	0x39b4f9b1	0.0003451831
192	0x3e163e82	0.14672282
193	0x3d8d35ea	0.06895049
194	0xbc7c3595	-0.015393634
195	0x3d1472a2	0.036242135
196	0xbda08cfe	-0.07839392
197	0xbe3b7759	-0.18307246
198	0x3aa540a3	0.0012607764
199	0xbdd52e8a	-0.10409267
200	0xbe063989	-0.13107885
201	0xbcd2b6e7	-0.02572198
202	0x3db2e410	0.08734906
203	0x3d2fa6ab	0.042883556
204	0xbc749f83	-0.014930609
205	0xbd188d81	-0.037244324
206	0xbdba0aba	-0.09084077
207	0x3df9aff6	0.12191765
208	0xbdf618a8	-0.120164216
209	0xbe3a14ec	-0.18172044
210	0xbe2f1299	-0.17096938
211	0xbe2ebba2	-0.17063764
212	0x3daf98cf	0.08574068
213	0x3d3edc76	0.046596967
214	0x3dbd3521	0.09238649
215	0xbe41c411	-0.1892245
216	0x3d59120e	0.052995734
217	0xbb441407	-0.0029919164
218	0x3e080268	0.13282168
219	0xbe05f69c	-0.13082355
220	0xbcb87d91	-0.022520812
221	0xbdede930	-0.116167426
222	0xbe2d1430	-0.16902232
223	0x3aa1d7dd	0.0012347657
224	0x3d85869f	0.065198176
225	0xbdb97637	-0.09055751
226	0x3ca372b0	0.019952148
227	0x3d6145ff	0.054998394
228	0x3d172485	0.036900062
229	0xbdbad179	-0.09121985
230	0x3d97c522	0.07410647
231	0x3d9575ab	0.07297834
232	0xbddece64	-0.1087921
233	0x3d8562ec	0.065130085
234	0x3db1b57f	0.08677196
235	0x3dd36400	0.10321808
236	0x3d7e03a0	0.062015176
237	0xbe21c60e	-0.15798208
238	0x3db59da9	0.08867962
239	0x3a2bbf14	0.0006551605
240	0x3e16ae1d	0.14714856
241	0x3dbd99ef	0.09257876
242	0xbb63383a	-0.0034670965
243	0x3bd1aea7	0.006398994
244	0x3dfbf1b2	0.12301959
245	0xbbd0db48	-0.0063737966
246	0xbcc9bff9	-0.024627673
247	0x3bf9367c	0.007605372
248	0x3d67da10	0.056604445
249	0x3e0560c2	0.13025191
250	0x3dbc4793	0.09193339
251	0xbdd22afd	-0.102621056
252	0x3d8c1fdf	0.068420164
253	0x3dc21dd0	0.094783425
254	0xbe26e656	-0.16298804
255	0x3dcca638	0.09992641

columns_head.0.bias f4 [16]
0	0xbe067bd9	-0.13133182
1	0x3e320a33	0.17386703
2	0xbd3bac2b	-0.04581849
3	0x3e3f7b17	0.18699299
4	0x3bbb28cc	0.0057116505
5	0xbaf5a4f2	-0.0018741174
6	0xbe116c9c	-0.14201587
7	0x3dec24cb	0.11530455
8	0xbda34a4a	-0.07973154
9	0x3e59ee32	0.2128227
10	0x3d865e1e	0.0656092
11	0x3e47131d	0.19440885
12	0xbe3773e4	-0.17915303
13	0x3e0034e8	0.12520182
14	0x3dfe57e6	0.12419109
15	0xbd9b53ef	-0.075843684

columns_head.2.weight f4 [1, 16]
0	0xbd83788d	-0.064194776
1	0x3e219dea	0.15782896
2	0x3b831b31	0.004001044
3	0x3e81bd7f	0.25339887
4	0xbe2b8ac0	-0.16752148
5	0x3e11466f	0.14187025
6	0xbe684408	-0.22682202
7	0xbe557146	-0.20843992
8	0xbd2ca558	-0.04214987
9	0x3e8770a5	0.26453128
10	0xbe597122	-0.21234563
11	0x3e88af26	0.26696128
12	0xbe2ce6f5	-0.16884978
13	0x3dd0ceeb	0.101957165
14	0x3e86eb45	0.2635137
15	0xbd7706d3	-0.060309242

time_head.0.weight f4 [16, 32]
0	0x3df53da2	0.11974646
1	0x3e15d551	0.14632155
2	0xbd8e1a23	-0.06938579
3	0xbd32d01f	-0.04365551
4	0xbdd3e05a	-0.10345526
5	0x3bb3800f	0.0054779123
6	0x3d9085ff	0.07056808
7	0xbdc064e9	-0.09394247
8	0xbe0567be	-0.13027856
9	0xbe1c6cd6	-0.15275893
10	0x3dfaf048	0.12252861
11	0x3cdc944e	0.026926186
12	0x3d38f0f7	0.045151677
13	0xbd8cffe7	-0.06884747
14	0x3d8cc491	0.068734296
15	0x3e07bd06	0.132557
16	0xbdfcb65d	-0.123394705
17	0xbdfbfb52	-0.12303795
18	0x3e05bfb9	0.13061418
19	0x3dc17209	0.094455786
20	0xbd5cb03b	-0.053879004
21	0x3e051972	0.12997988
22	0x3b8874b0	0.004164301
23	0xbd5170ba	-0.051132895
24	0xbdaff636	-0.08591883
25	0xbdcb6789	-0.09931857
26	0x3e094e04	0.13408667
27	0xbe14b2c6	-0.14521322
28	0x3ca00a81	0.019536259
29	0xbe070a42	-0.13187507
30	0x3cdb7641	0.026789786
31	0xbdd1b4ce	-0.10239564
32	0xbd9813c7	-0.07425647
33	0xbdcde621	-0.10053659
34	0xbe2b49b2	-0.16727331
35	0x3ccad4ea	0.024759728
36	0x3d383a8b	0.044977706
37	0x3daadd92	0.083430424
38	0xbd8b9319	-0.06815166
39	0xbdc61243	-0.09671452
40	0xbe01743e	-0.12641999
41	0x3de84db6	0.11342947
42	0x3cfc089f	0.03076583
43	0xbe0004ff	-0.12501906
44	0xbe13e50a	-0.1444284
45	0xbd85f120	-0.065401316
46	0x3dfcd002	0.12344362
47	0x3e1a997d	0.15097614
48	0xbdf272ec	-0.11838326
49	0x3d6debfe	0.058086388
50	0xbd1dcce1	-0.038525466
51	0xbe62daf7	-0.22153841
52	0x3dc34448	0.09534508
53	0xbddc23f0	-0.10749042
54	0xbdad5532	-0.08463515
55	0xbe4bec3d	-0.19914337
56	0xbc3883f1	-0.011261926
57	0xbe47abfb	-0.19499199
58	0x3dd4dc59	0.103935905
59	0xbe251861	-0.16122581
60	0x3ca7ea91	0.020497592
61	0xbe0f6c33	-0.14006118
62	0xbe47cbba	-0.1951131
63	0x3d871fc0	0.06597853
64	0x3d3deaad	0.046366382
65	0x3d78fe9b	0.060789686
66	0xbdc23668	-0.094830334
67	0x3e30322f	0.17206644
68	0x3d7ac55b	0.06122337
69	0xbd7b6b93	-0.061381888
70	0x3e3c447e	0.18385503
71	0x3e123241	0.14276983
72	0x3e348f17	0.1763271
73	0x3e86f362	0.2635756
74	0x3be88ea0	0.0070970803
75	0x3e24acf1	0.16081597
76	0x3dca139e	0.09867023
77	0x3e2eb358	0.17060602
78	0x3e10b1ff	0.141304
79	0x3d7d8656	0.06189569
80	0x3de53d3c	0.1119332
81	0x3cf75c65	0.030195424
82	0xbbbf5846	-0.0058393804
83	0x3cd8aa67	0.026448442
84	0x3da9d95c	0.08293411
85	0x3e9dd411	0.30825856
86	0xbcaf2bbc	-0.021383159
87	0x3e178ca9	0.14799751
88	0x3de18320	0.11011338
89	0xbb7f3881	-0.003894359
90	0x3e8559cf	0.2604508
91	0x3d8d82b7	0.069096975
92	0xbcca04e6	-0.024660539
93	0x3c93df82	0.018050913
94	0x3e001655	0.12508519
95	0x3d748e4d	0.05970602
96	0x3e5b03c5	0.21388157
97	0x3de262e3	0.110540174
98	0x3c000b30	0.007815167
99	0x3d8f06b9	0.06983704
100	0x3ccd8d2c	0.02509173
101	0xbd13dc7e	-0.03609895
102	0x3dafe0a9	0.085877724
103	0x3e46507b	0.19366638
104	0x3cdde56f	0.027086942
105	0x3e134085	0.14380081
106	0x3e82abb5	0.25521627
107	0x3e8f2f90	0.27965975
108	0x3e5f00d6	0.21777663
109	0x3d91628b	0.07098874
110	0x3dcf1830	0.10112035
111	0x3cc49d57	0.024000807
112	0x3e9d4e62	0.30723864
113	0x3e5fe1ab	0.21863429
114	0xbcb996bf	-0.02265489
115	0x3df3e774	0.119093806
116	0x3e36e925	0.17862375
117	0x3d6deabc	0.05808519
118	0xbc83036e	-0.015992846
119	0x3e54f31f	0.20795868
120	0x3e1fa6d0	0.15590978
121	0x3d85211a	0.06500454
122	0x3e018c85	0.1265126
123	0x3e934620	0.2876444
124	0x3ea33bfc	0.31881702
125	0x3df545d3	0.119762085
126	0x3e73033a	0.237317
127	0x3df564ae	0.11982094
128	0x3e07c0c1	0.13257124
129	0xbd6665b1	-0.056249324
130	0xbde45f54	-0.11150995
131	0x3ea1d8d3	0.31610736
132	0x3e8adaf8	0.27120185
133	0x3e18b0ac	0.14911145
134	0x3c40803c	0.011749323
135	0xbe04a776	-0.12954506
136	0x3e68723e	0.2269983
137	0x3d88fec1	0.066892155
138	0x3e5aaf5d	0.21355958
139	0x3d7f4b29	0.062327538
140	0xbcc0871f	-0.02350193
141	0x3daa04b2	0.08301677
142	0x3e34d463	0.17659144
143	0x3dbc0439	0.09180493
144	0x3da4e11e	0.0805075
145	0xbae362e4	-0.0017348197
146	0x3e342bc0	0.17594814
147	0x3e871334	0.26381838
148	0x3e880e85	0.26573578
149	0x3df70666	0.12061767
150	0xbc4f6e90	-0.0126606375
151	0x3d9981db	0.07495471
152	0x3e373ae5	0.1789356
153	0x3e83bce7	0.2573006
154	0x3e8bcd1d	0.27304927
155	0x3e7556d4	0.23958904
156	0x3dc187f6	0.094497606
157	0x3e7df631	0.24800946
158	0x3e0ba40e	0.136368
159	0x3e59dd90	0.21275926
160	0xbde314d4	-0.11087957
161	0xbdfb3c84	-0.12267402
162	0xbe3db4ab	-0.1852595
163	0xbd842cef	-0.06453883
164	0x3e598243	0.21241097
165	0xbe1af7ea	-0.15133634
166	0xbd333864	-0.04375495
167	0x3d1f6ea9	0.038923893
168	0xbd7c956c	-0.061665937
169	0x3d874343	0.06604626
170	0xbdf82c04	-0.1211777
171	0x3d5636f2	0.052298494
172	0x3e1872d9	0.14887561
173	0xbcc6b16a	-0.02425452
174	0x3e0123ca	0.12611309
175	0x3e145872	0.14486864
176	0x3db610c5	0.08889917
177	0xbdaf36b1	-0.085553534
178	0xbd42171b	-0.047385316
179	0x3e526e37	0.20549856
180	0x3def531e	0.11685775
181	0x3e1bffb7	0.15234266
182	0xbe0076cf	-0.12545322
183	0xbdf5ac34	-0.11995736
184	0x3e3d928e	0.18512937
185	0xbd8e4e62	-0.06948544
186	0xbc64a193	-0.013954538
187	0x3e174a88	0.14774525
188	0xbdd1bb44	-0.10240796
189	0xbcb842d6	-0.022492807
190	0xbe06f899	-0.1318077
191	0xbc135271	-0.0089918235
192	0xbe147dd7	-0.14501129
193	0x3c2d6a8b	0.010584484
194	0x3e19ec74	0.15031606
195	0xbe271711	-0.16317393
196	0x3c4835aa	0.012219826
197	0x3e034bff	0.12821959
198	0x3c98cfd1	0.018653782
199	0x3d40ea6a	0.047098555
200	0x3d9086cb	0.0705696
201	0x3b66dffe	0.0035228725
202	0xbe1577ff	-0.14596556
203	0xbe4d3ca3	-0.20042662
204	0x3d86aa7e	0.065754876
205	0x3dd1126d	0.102085926
206	0xbdc4ca53	-0.09608903
207	0x3cc560ca	0.024094004
208	0xbe006ab2	-0.12540701
209	0xbccd1daa	-0.025038559
210	0x3de61b19	0.11235637
211	0xbe30c3e9	-0.17262234
212	0xbe0d9a3c	-0.13828367
213	0x3d06169e	0.032736413
214	0x3b8a76f5	0.0042256066
215	0x3c309d4b	0.010779689
216	0xbca3c7cc	-0.019992732
217	0xbae3d6c8	-0.0017382735
218	0x3d51afb1	0.051192943
219	0xbdcfee4c	-0.101528734
220	0xbd88a237	-0.06671565
221	0x3d9a14fb	0.07523533
222	0xbda7910d	-0.08181963
223	0xbd8fdc28	-0.07024413
224	0x3e639e0c	0.22228259
225	0x3d9586c7	0.07301097
226	0xbe036c0a	-0.12834182
227	0x3d4b8220	0.049684644
228	0x3d84efa1	0.06491018
229	0xbdbe309d	-0.09286616
230	0x3e48dadd	0.1961474
231	0xbd9b1c74	-0.075737864
232	0x3da8794b	0.0822626
233	0x3e122f18	0.14275777
234	0xbd58f738	-0.05297014
235	0x3c923bcd	0.01785078
236	0x3e83ff61	0.25780776
237	0x3c01d4b2	0.007924246
238	0x3e94ae8f	0.29039428
239	0x3e7a3ade	0.24436519
240	0x3e23f091	0.16009738
241	0x3e33d7a6	0.17562732
242	0xbdb782b1	-0.08960474
243	0xbbccbfc2	-0.0062484453
244	0x3df27b2a	0.11839898
245	0x3e53c198	0.20679319
246	0x3d1c8ef9	0.038222287
247	0x3e13997a	0.14414015
248	0x3e71e02e	0.23620674
249	0x3c004ff9	0.007831567
250	0x3d8de813	0.0692903
251	0x3bcc7b17	0.0062402594
252	0x3d6cc951	0.057809178
253	0x3e9cbab9	0.30611208
254	0x3d43e4e2	0.0478257
255	0x3d6c1633	0.05763836

time_head.0.bias f4 [16]
0	0x3e08c7ad	0.1335742
1	0xbd390074	-0.045166448
2	0x3e4e20ce	0.20129701
3	0x3df7187e	0.120652184
4	0x3e613f0b	0.21996705
5	0x3dd12a12	0.102131024
6	0xbe4c5265	-0.19953306
7	0x3e00578d	0.12533398
8	0x3dc8ffcc	0.098144144
9	0x3e1cd3fb	0.15315239
10	0x3e835ff2	0.25659138
11	0x3d8cb101	0.06869698
12	0x3e0200a2	0.12695554
13	0xbe52a53a	-0.20570841
14	0x3d864b00	0.06557274
15	0xbe41dd27	-0.18932019

time_head.2.weight f4 [1, 16]
0	0xbe462d36	-0.19353184
1	0xbb599948	-0.0033202935
2	0x3e1df280	0.15424538
3	0x3e246c14	0.16056854
4	0x3e49a60c	0.19692248
5	0x3d62587f	0.055260178
6	0xbe18bbce	-0.14915392
7	0x3ec636d1	0.38713697
8	0x3e9e299b	0.30891117
9	0x3e4f7053	0.20257692
10	0x3ec6bdd7	0.3881671
11	0x3e976e70	0.29576445
12	0x3e4fc3dc	0.20289558
13	0xbd6e642f	-0.05820101
14	0xbe60b5c0	-0.21944332
15	0xbd3a9af2	-0.045557924
